logs/wrapper_net_epoch_41.pth (torch, 874925 bytes, 362 tensors)

module.transform_net.inn.lifts.0.p.net.convin.weight f4 [32, 1, 3, 3]
00000000: 2d95 d5bc b658 153d f56b 59bd b1cd 493c
00000010: 66dd 25be f3c8 823e bdf2 9cba 16b0 e1bd
00000020: 3ff8 563d c73d de3d 54c7 8fbc 9aca a7bd
00000030: 92ef b33d f19f cc3d f39e 90be c083 813d
00000040: 64cc 823d f98a 87bd d1ce c23c c27b 773e
00000050: 9168 033e bbba 19be 7207 d2bd a594 0a3e
00000060: 8e61 28be 4f67 e6bc dbf7 b4bd 70da 273c
00000070: d543 40bd e1ad 65bd 9eaa a73d 65de a93e
00000080: 1b3f 7abd 4d68 0c3d c9fb 7fbe 756c bebc
00000090: 7d32 06bd 3f6f 843d 2369 bc3d 1674 d93b
000000a0: f310 69be 7922 df3d a102 b9bd b8c0 643d
000000b0: 9328 6ebd 5f92 f83d 6f6f 8cbc 429e efba
000000c0: 2cbc 013e 5d38 2abd 8d7d 543b 2a5e 2dbe
000000d0: e04d e2bc 665d d1bd 6c0d a8bb 82c1 2c3d
000000e0: 8515 093e 5650 533e baec ae3e 107b cabd
000000f0: 2464 863d f5e3 773d a56b 3a3e c3e1 cb3d
00000100: ac75 483e ec07 84bc a6f6 383e 2de8 5a3e
00000110: 47eb 6ebe 699d 78bd f446 32be 8bb6 59be
00000120: 828e 213d 3764 31bd ef5e 5fbd 8769 623e
00000130: f1d3 8ebe 2e60 e63d 15ad 4c3e c46a f1bd
00000140: b9dc d8bd 32f6 be3d fad3 243e 56dd eabd
00000150: 9842 0abe e819 91bd 6c25 08bd 98b5 953d
00000160: 1eb7 4d3e 581a 0d3e 5f2c 1abe 0435 65be
00000170: fc9c 91bd a467 293d b8eb 2dbe 6b29 013e
00000180: f0e1 793d ea79 a8bd f81a 6dbd c054 aa3d
00000190: 435c d03c 475c 0bbd 402d d23b 2868 6abe
000001a0: 32e8 603e 25e1 b43c 23c9 df3d 64cd 3bbe
000001b0: 4cf8 a63c da4b aabd 0d27 e8bb 0e04 07be
000001c0: 8a51 7f3e c4d5 ffbd f793 a0bd 98c4 40bd
000001d0: 73d6 123e 8fa0 f93d 8088 05be cac6 4a3c
000001e0: e266 36be 4355 14be 8fc6 0c3e 94c4 393e
000001f0: 0214 243c a690 2abd 4e61 85bd 4d6d da3d
00000200: 5d8d 353e 0a71 91be 2ebb be3d bd5e 2fbd
00000210: ea14 3bbd 7471 203d 5002 32bd d054 093e
00000220: 783e 3ebe 8df2 99be 5cb8 8a3d fd09 f63d
00000230: bcc2 233d c2ee f33d e4d2 4a3d 6c38 2ebd
00000240: ecc4 fe3d 3def ce3d f4ec a63a 98ec 10bd
00000250: 7f35 59be 32a4 5b3d 57d8 343e 35bb 83be
00000260: 648c 943d ae46 fabd ea73 1c3c 6476 3cbe
00000270: b158 973d a8dc c93d b293 de3d d2a2 52be
00000280: 3780 5b3e fad0 fabc e373 a7bc 44e4 423e
00000290: b4b3 66be 8d9b 96bc f312 ecbc 40ef 85bd
000002a0: 1607 a836 969f 8ebd 0f26 763e 6730 013e
000002b0: 063b a5bc 50e5 aabd ed54 71bd 9331 40be
000002c0: 4e88 e0bd 31a9 5d3d 75c6 8f3a ebf2 ca3d
000002d0: 0753 153e 8fdc e53d cbe4 4fbe 47ec 613e
000002e0: af08 5738 29da 77be 260f 813c 8cc7 0ebd
000002f0: 8ea5 f7bc fcac 7dbd d9b7 363e 60e7 313d
00000300: b208 fe3c cc70 93be 80a9 06bd 5650 12be
00000310: 908e 413e 0d85 c7bb 5ca2 18ba 2757 81be
00000320: 3cbb 34be 2e9c cb3b 770b 503d 02dd 54bd
00000330: 69bf 6d39 c1e2 5b3e 33f3 4b3e b02f a03d
00000340: 5b08 0fbe 21bf db3c f452 6a3d 2be6 c4bd
00000350: d0ee 2e3d 4a1f 3cbd 0559 ddbd a6ea d43d
00000360: 4fa3 733d 2d15 aebd 5cf0 89bd 0bbd ba3c
00000370: e7d8 f8bc be54 3ebe 4a84 eb3c ac2d 12bd
00000380: c0e3 bc3d 6bc4 37be e16b febd 05f1 883e
00000390: c98a a23e 160d 49be 356e b2bd b577 61bd
000003a0: 88ac 3f3d 8b88 ebbc a427 843c f0bb 0fbe
000003b0: 57c8 7e3d 367d 91be 92ad 0a3e 1d5a 0fbd
000003c0: f15d 7b3d 3dbc ba3d 908b 943d 3a0a b13d
000003d0: 182a bfbb 6acb 48be 5e5e 023e 4ff8 0c3e
000003e0: 4daf 0cbe 0c91 6abd 6f20 803c 97d8 7bbd
000003f0: 0507 d83d d11a b13c 6f01 22be dfa7 f8bd
-0.02607211 0.036461554 -0.05308147 0.012317107 -0.16197738 0.25543937 -0.0011974197 -0.11019914
0.05248284 0.10851627 -0.017551102 -0.0819294 0.08785929 0.09991444 -0.2824627 0.063239574
0.06386641 -0.06618304 0.023780258 0.24168304 0.12832858 -0.15012638 -0.10255326 0.13533266
-0.16443464 -0.028125433 -0.08836337 0.010244951 -0.04693969 -0.056074027 0.081868395 0.33177486
-0.06109534 0.034279156 -0.24998392 -0.023245076 -0.032762993 0.06466531 0.09199741 0.006636153
-0.22760372 0.10895247 -0.090337045 0.055847853 -0.058144163 0.12137293 -0.01714298 -0.0018281417
0.12669438 -0.04155766 0.0032423467 -0.16930452 -0.027625024 -0.102228925 -0.005128553 0.04217673
0.13387115 0.20636114 0.34164983 -0.098867536 0.06562069 0.06052013 0.18205126 0.0995517
0.19576138 -0.016117059 0.18062839 0.2137763 -0.23331939 -0.060696993 -0.17409879 -0.21261041
0.039442547 -0.043308463 -0.054533895 0.22110568 -0.27896073 0.112488136 0.199879 -0.11787942
-0.105889745 0.09324302 0.16096488 -0.11467998 -0.13501966 -0.07085019 -0.033238813 0.07310027
0.20089385 0.1377958 -0.15055989 -0.22383505 -0.071100205 0.041358605 -0.16984451 0.12613456
0.061006486 -0.08226378 -0.057887048 0.08316946 0.025434619 -0.03402355 0.0064140856 -0.22891295
0.21963575 0.022080014 0.10927036 -0.18340069 0.020382069 -0.08315249 -0.0070847333 -0.1318514
0.24933448 -0.124919444 -0.07840722 -0.047062486 0.14339618 0.12188827 -0.13040352 0.012376497
-0.17812684 -0.1448565 0.13747619 0.18141395 0.010014536 -0.041641854 -0.065127 0.10665379
0.17729707 -0.28406554 0.093130454 -0.04281496 -0.045674242 0.039170697 -0.043459237 0.1341126
-0.18578517 -0.30067864 0.06773445 0.12013624 0.039980635 0.11910774 0.049517527 -0.042534277
0.124399036 0.10104225 0.0012735412 -0.035381883 -0.21211813 0.053623386 0.17660652 -0.25728765
0.0725334 -0.12220512 0.00954912 -0.18404537 0.073899634 0.0985654 0.108680144 -0.20569924
0.21435629 -0.030617226 -0.020441001 0.19032389 -0.22529489 -0.01838472 -0.02881763 -0.06539774
5.007615e-06 -0.06964032 0.24037956 0.1261612 -0.020169746 -0.08344519 -0.058918882 -0.18768911
-0.10963498 0.05411643 0.0010969179 0.09909614 0.14582454 0.11223709 -0.20302121 0.22062789
5.126808e-05 -0.24204315 0.015754294 -0.03485827 -0.03023031 -0.06193255 0.1784357 0.043433547
0.031010006 -0.28796995 -0.03287649 -0.14288458 0.1890204 -0.006088859 -0.0005822533 -0.25261804
-0.17649549 0.0062136864 0.050792184 -0.051968582 0.00022673387 0.21473219 0.19916992 0.07821596
-0.13968031 0.026824536 0.057208017 -0.096142136 0.042708218 -0.045928277 -0.10807995 0.10396318
0.059481915 -0.08500133 -0.06735298 0.02279522 -0.030376865 -0.18587014 0.028749604 -0.035688087
0.09223127 -0.17946021 -0.1242292 0.26746383 0.3174651 -0.19633898 -0.087124266 -0.055045802
0.046795398 -0.028751632 0.016132183 -0.14036536 0.062202778 -0.2841584 0.13542774 -0.034998048
0.061368886 0.09117935 0.07253182 0.08644529 -0.0058338754 -0.19608846 0.1273131 0.13766597
-0.13738747 -0.057267234 0.015640466 -0.061485853 0.10548214 0.021619232 -0.1582086 -0.12141394

module.transform_net.inn.lifts.0.p.net.blocks.0.tconva.conv.depthwise.weight f4 [32, 1, 3, 3]
00000000: 32c7 01be 6985 8ebe 7970 43bc 7f34 abbd
00000010: 5216 34be 7a6b a33d 110b c7bd 9966 93be
00000020: c337 143e 7065 55be 2628 d23d 195d 12be
00000030: c300 dc3e 9792 e7bd 4d28 8abe 8da4 da3d
00000040: 1cc1 8cbd d626 67be fa33 043e 416d 103e
00000050: 09a4 623e c3d5 853e 8e28 933e 9e7a 1f3d
00000060: 215f ccbc b25b 5bbd ba3c 6e3e 5a95 283e
00000070: 11f7 9d3e 4174 533e c4ff 4a3c 1b6f 1bbe
00000080: c2eb f4bd dbab 34be 648f f63d b74a f83c
00000090: 2333 0a3d bda3 863e b3de 803e 7d35 1dbd
000000a0: 1aa7 4bbd df88 353e a921 20be 1268 09be
000000b0: 560c d1bd 9a12 95bd 463e 0f3d 3ecb 59bc
000000c0: e5da fb3d 798e 9e3e bf55 1cbd 7fcf 4ebe
000000d0: f940 ff3d f7a6 fb3c 9017 6bbe ee67 b4bd
000000e0: 73b7 ba3e 7372 a8be 6b7a b9bd e229 883e
000000f0: b189 01be ee7f 2cbe a3d2 383e 2698 9b3e
00000100: 6480 be3d 4c4e 7a3e a698 f13c 6505 643e
00000110: 0b96 863e 6fd5 153e e1dd b53d 97bb 503d
00000120: 7da0 0b3e c2e3 b7be 63e8 103e fb90 0ebe
00000130: 1fa0 42be 7617 80be 2447 25be bf74 4dbe
00000140: 3170 10bd acd0 8a3c 6696 c0bd 2436 a1be
00000150: 565f 09be c00b 0f3e af1b c9bd fed6 9b3d
00000160: bf80 683c 606e 1fbc 5811 b43e a320 a43d
00000170: 1aab 7cbd 9f15 0ebb d358 933d 462f 9ebd
00000180: 4dc0 3c3e 8c83 33be a433 98be 9a3a 4bbb
00000190: a641 7f3e c3a9 833e 2925 41be d7f2 a4be
000001a0: b700 9c3e 4d7d 09bd 5fe3 66be f974 443e
000001b0: 8db5 c43c 2b95 20be b399 b3be 4c23 8abd
000001c0: bcf1 1abe a0f1 4ebd 2c83 1c3e 2efa 963e
000001d0: bb71 9b3e aa67 b93e fce0 31be c95a 54bc
000001e0: 7eb5 9e3e 11cb 82be ee55 5f3d 87b4 f7bd
000001f0: 741d c9bd 8333 82be 705b bbbd 6180 103e
00000200: ca36 39be 88ef 123d 7bee bebd 02c6 813e
00000210: 3425 533e 6c12 d7bd 98d2 cabe 2335 613d
00000220: 3a48 7dbe 87b3 553e d80e 553e 1e22 b43e
00000230: 3076 b33e 4838 763e 53b4 3bbd f86a eebd
00000240: c135 4cbe f752 c6bd 9111 503e a526 2c3e
00000250: 0bd6 503e 4468 113e 6ea3 6abe 4d3c a03e
00000260: 9a49 573e 1ddb 8cbe 8adf e13b c35b 2f3e
00000270: 3514 04be 5aed a2be c5d1 a13e 0403 19be
00000280: 953e 9dbc 96ce 073e e43e eabc c93a 513e
00000290: 8026 103d 9142 84bd 1fbe 8a3e 7550 77be
000002a0: 3c8d a83e 3216 74be 2fe2 2c3c 8bf7 52bc
000002b0: 5bab 993d b0f8 8dbe a592 1c3e de12 03be
000002c0: 6016 36be 1735 abbe 19ff 8a3e ee6b e73d
000002d0: 3837 8c3e bd2d 50bd d72f 67be 3d3a 50bd
000002e0: d723 64be e220 a13d c6b5 b3be aa6e 78bb
000002f0: aa6f 533e c41c 7bbc 77ae 53be 52f3 edbd
00000300: 0143 95bd 74ba 74bd 2ed5 84bd a429 90be
00000310: d2aa 933e ffe5 10be 1861 ad3d 7bff c8bd
00000320: c5ee 2f3e 7c42 ecbe dcaf a53e 4d6c 8b3e
00000330: 514a bdbe 9a9b 9f3d 3766 973e 156b 603e
00000340: f40b ba3d a966 91be 83a5 78be 833c f13d
00000350: 1aac b23d ed2d 663e 7f55 33be 8127 553e
00000360: b6f8 42bd 6c4b a4bd 9827 b0bd effb b53c
00000370: 772e 35bb 5b07 55be 4495 15bd fc22 7abe
00000380: cbe1 653e 7b03 41be 3644 9f3e 68a3 863d
00000390: 0df7 5c3e 46a9 e3bc 9914 053e b264 debd
000003a0: 6ed1 b83c fd42 2cbe e8e7 473e 1b30 b83e
000003b0: add8 13be 57e6 583e 4fb4 d3be 265c d23d
000003c0: 7e92 3ebc 0e9b a4be a15d 8f3d 09c1 06be
000003d0: 2a01 7dbe 508c b0be d520 7a3e d0e7 4c3e
000003e0: 0759 89bb 170b 0bbe 98e0 1d3e a431 75bc
000003f0: 2128 97bc aa7c a13d 16e6 83be ba94 4c3e
-0.12673643 -0.2783616 -0.011928671 -0.08359622 -0.1758664 0.07979484 -0.097189076 -0.28789213
0.14474396 -0.20839477 0.10261564 -0.14293326 0.4296933 -0.11307257 -0.26983872 0.10675917
-0.0687277 -0.22573408 0.12910452 0.14104177 0.22132887 0.2613965 0.28741878 0.038935296
-0.024947705 -0.053554244 0.23265353 0.16463223 0.3085256 0.20649816 0.012390081 -0.15179102
-0.1195903 -0.17643683 0.12039068 0.030309064 0.033740174 0.26296797 0.25169906 -0.03838109
-0.049719907 0.17727993 -0.1563784 -0.13418606 -0.10207431 -0.072789386 0.034971498 -0.013293086
0.1229761 0.30968073 -0.03816771 -0.20196341 0.124635644 0.030719263 -0.22958207 -0.088088855
0.36468086 -0.32899818 -0.090565525 0.26594454 -0.12650181 -0.16845676 0.18049102 0.30389518
0.09301832 0.2444393 0.029491734 0.22267683 0.2628635 0.146322 0.08880211 0.05096015
0.1363544 -0.35915953 0.14151148 -0.13922493 -0.19006394 -0.250179 -0.16140419 -0.20064066
-0.035263244 0.016945206 -0.09403686 -0.3148662 -0.13415274 0.13969326 -0.09819733 0.07609366
0.014190852 -0.009730905 0.35169482 0.080140375 -0.061686613 -0.0021680368 0.07194676 -0.077238604
0.18432732 -0.1753065 -0.297269 -0.003101027 0.24927387 0.25715455 -0.18861832 -0.32216522
0.30469295 -0.03356676 -0.22547673 0.19185247 0.024012351 -0.15681903 -0.350782 -0.067450136
-0.15131277 -0.0505234 0.15284413 0.29487747 0.30360207 0.36211902 -0.17370981 -0.012961098
0.30997843 -0.25545552 0.05452531 -0.1209498 -0.09820071 -0.25429925 -0.091483 0.14111473
-0.18087307 0.035872966 -0.0932283 0.2534638 0.2061966 -0.105015606 -0.39613795 0.054982316
-0.24734583 0.20869265 0.20806444 0.3518228 0.35051107 0.24044907 -0.045826267 -0.116414964
-0.1994238 -0.09683793 0.20319201 0.16811617 0.20394151 0.1419993 -0.22913906 0.31296006
0.2102417 -0.2751092 0.006893103 0.17124848 -0.12898333 -0.3182171 0.31605354 -0.14942557
-0.01919488 0.132624 -0.028594442 0.20432581 0.035192966 -0.06458009 0.27098176 -0.24151786
0.32920253 -0.23836592 0.010551973 -0.012876402 0.075033866 -0.27728796 0.15290315 -0.12800166
-0.17781973 -0.33438942 0.2714775 0.11299883 0.2738588 -0.05082487 -0.22576843 -0.05083679
-0.22279297 0.078676 -0.3509962 -0.0037907758 0.20648065 -0.0153266825 -0.20672022 -0.11618675
-0.072881706 -0.059748128 -0.06485973 -0.2815677 0.28841263 -0.14150237 0.08465785 -0.09814354
0.17180927 -0.46144474 0.32360733 0.27231064 -0.3697076 0.077933505 0.2957017 0.21915849
0.09084311 -0.28398636 -0.24281888 0.1177912 0.08724232 0.22478457 -0.17513083 0.20815851
-0.04760047 -0.08022198 -0.08601302 0.022214858 -0.0027646103 -0.20803587 -0.036519304 -0.24427408
0.22449414 -0.18848984 0.31106728 0.06574136 0.21578617 -0.027790677 0.12996139 -0.1085905
0.022560801 -0.16822429 0.19522059 0.35974202 -0.14438124 0.21181618 -0.41348502 0.10271482
-0.011631606 -0.32149547 0.0700028 -0.13159575 -0.24707475 -0.3448205 0.24426587 0.20010304
-0.004191521 -0.13578449 0.15417707 -0.0149654485 -0.018451752 0.07885106 -0.2576148 0.1997861

module.transform_net.inn.lifts.0.p.net.blocks.0.tconva.conv.pointwise.weight f4 [32, 32, 1, 1]
00000000: 6f3b 913d 4e54 36be db06 96ba e1dd 863e
00000010: bf2e 363d 3e05 15bd 043c c0bd 548f b93e
00000020: 4069 d3bb 43e5 de3d 7175 7abd 8666 6a3e
00000030: d9a4 71be 8dca 483e cf50 00bd b8ca dfbc
00000040: 9459 48be e546 cd3d 19d2 4b3e dce0 5cbe
00000050: efd8 8abe 4b8d c83d 0577 0b3e 55b7 173d
00000060: bcef cd3d 8d7e e9bc d193 ebbc c4c5 46be
00000070: 76bc df3c 1621 bb3d e48a 0b3e 66cd b13d
00000080: f8d4 563e dba1 7abe 8533 3d3e ac12 b3bd
00000090: 2c0a 9e3e b1f1 79be fe1d ecbc 1b4e 4ebe
000000a0: 551a 2b3e dac6 9d3d f8a0 a83d ae1d 42be
000000b0: 8ee4 dcbd 668b 8e3e 446e 873d f2dd 613d
000000c0: f0af 25be 89c9 2fbd e586 393e 1b4a 26bd
000000d0: b91a 7a3e de73 f6bd 1642 d3bd 4622 b13d
000000e0: 645c cabc fc1c d5bd 0671 b7bd ce28 7cbc
000000f0: 01e7 57bd 6b15 a43d 6f8b be3d 6603 55bd
00000100: 254a b7bd f867 41be 6e6c c1be c33f a83d
00000110: d83c 693e 4ef0 f0bd fce6 2bbe 6ed6 c9bd
00000120: 4d6c dabd 2806 d23d a2a4 30bd d83f 8d3c
00000130: 3244 cd3d 348e a9bd 0765 973c b6a8 2a3e
00000140: 9817 81bd ab58 44be 1a5b ab3d 02ca 4e3d
00000150: 1625 1c3e 2b1c d2bd 9d7b 5c3e 424a 28bc
00000160: 9a7c 30be 7693 d93d 7069 793d faa2 a2bd
00000170: 8efd 00bc 8db3 d33b 52a0 fb3d ed57 c43c
00000180: 117e b6bd 6c0b 343e ec92 78bd 848d b23e
00000190: c694 2d3e 6092 f13b d138 87be 224c 5bbd
000001a0: 414c 60be c146 8d3e 41eb 79bd 4157 2bbe
000001b0: a87b 3cbd 3089 5f3d 265e 9e3c 9b67 18be
000001c0: 8519 393d 9885 9abc d0ea f43c f7a4 abbd
000001d0: f331 e9bd 9213 36be 0b6d 64be 95ef 1e3d
000001e0: fa7d 163e abeb 813d 9c2e 433e 7442 763d
000001f0: 2df9 0e3e 1279 85bd 1563 0b3e dc15 a8bd
00000200: ecce 1bbc 9cc7 bbbe 0b46 013e f6bd 223e
00000210: ceab 833e 6c6f 3abe bdc6 9dba b58d e9bc
00000220: 667a 193e 05ae a4bd 76be 7c3d 852e debc
00000230: 0c33 373e 1dc8 643e 2328 77bd c33a d53c
00000240: ad6b 10be feff 003d a728 eabd a42a 603e
00000250: d575 0a3e a404 0dbe 5000 3b3e f77d ed3c
00000260: de6b 523e 0162 33be 2020 033e 0799 83be
00000270: 68a3 793d b64c 5e3e cf4c 983d 166f 0d3e
00000280: a5ae 12bd a06a a33e b30b ac3e b05e 7e3d
00000290: 9d98 7abd 61fd f8bd e38e 923c 9c6f 6ebd
000002a0: b4dd 833d d73d 02bd 5fe2 a53d ee92 bebe
000002b0: bc04 83be 90b9 1b3e 19ae 55bc 6f80 9ebe
000002c0: 964d 56be ac98 693e cb22 19bd ecb6 fd3d
000002d0: cb7c 263d 9734 2cbe b190 4bbe 02f5 94bc
000002e0: 98fa d53d 7f3e 103d a2b1 13bd 96ea 003e
000002f0: c0fd 1cbd 6ca9 793d e10d dbbc 65e7 a4bd
00000300: 0185 fbbd 4cd8 9dbe a62c 943d 2eb2 7c3d
00000310: 2444 7ebe 8598 be3c 5678 113e e6d4 dc3d
00000320: 6f34 443d f654 63be 5fd1 d53c 85c5 1f3e
00000330: 23bb da3d fb57 603e 4197 213d 0e3b 01be
00000340: 0d2f 933d 60f1 85be cadb 4dbe ca15 703e
00000350: 9f0e babd 4b33 ca3d 694f 9c3e 898c 99be
00000360: f687 bd3d 9b9a b3bc be0f 8e3e 4a7a 763e
00000370: 9e26 b1bc 34e3 a6bd eee3 25be 026f 40bd
00000380: 69ef 58be c690 24bd 4cc4 ed3b d9f6 843e
00000390: 74e4 26be 0702 5abe 2eaa 96be 186d 78be
000003a0: 28cb 1d3d 852b d7be f2a9 223e 3062 643d
000003b0: aeb1 463d e806 92be 76cc fbbd be5a 9ebd
000003c0: e962 4e3e 8845 0dbe 262f 90be 07af 243e
000003d0: caab 62bd b3da 2e3e a013 c7bc 4001 40be
000003e0: d6fc 873e 6af6 933e 84fe 263e 49a4 b83d
000003f0: 994b 68be 81d6 cebc f3d9 a33d 9562 983d
0.07091414 -0.17805597 -0.0011446135 0.26341155 0.044478174 -0.036381952 -0.09386447 0.36242163
-0.0064517558 0.10883572 -0.061147157 0.22890672 -0.2359804 0.19608517 -0.031327065 -0.027318344
-0.19565421 0.10023288 0.19904365 -0.21570152 -0.27118632 0.097925745 0.13619621 0.037040073
0.10055491 -0.028502727 -0.028757008 -0.19411379 0.027311545 0.0913717 0.13627201 0.08681755
0.20979679 -0.24475805 0.18476684 -0.08743796 0.30867136 -0.24408604 -0.028822895 -0.20146982
0.16709264 0.077039436 0.08233827 -0.18956634 -0.10785781 0.27840728 0.066128284 0.055143304
-0.16180396 -0.04291681 0.18117864 -0.040598016 0.24424256 -0.12033819 -0.10315339 0.08649115
-0.024702258 -0.10405919 -0.089571044 -0.015390588 -0.052710537 0.08011898 0.093039386 -0.052005194
-0.08949689 -0.18887317 -0.37778038 0.082152866 0.22777116 -0.117645845 -0.16787332 -0.09855352
-0.10665188 0.102550805 -0.043125756 0.017242357 0.10022773 -0.08279076 0.01848079 0.1666592
-0.06303328 -0.19174449 0.083669856 0.05048562 0.15248522 -0.10259279 0.2153153 -0.010271611
-0.17235032 0.10623829 0.06089157 -0.079412416 -0.007872952 0.006460613 0.12286438 0.023967708
-0.08910764 0.17582482 -0.06068699 0.34873593 0.16951284 0.0073721856 -0.26410535 -0.053539403
-0.21904089 0.27593043 -0.06101537 -0.16732503 -0.046016365 0.05457419 0.019332003 -0.14883272
0.045190353 -0.01886253 0.029897124 -0.08381074 -0.1138648 -0.17780903 -0.22307222 0.038802702
0.14696494 0.06343778 0.19060749 0.06012197 0.1396224 -0.06517233 0.13612016 -0.08207294
-0.009509783 -0.36675727 0.12624376 0.15892777 0.25717014 -0.18206567 -0.0012037378 -0.028509954
0.14988098 -0.08041004 0.061705075 -0.027121792 0.17890567 0.22341962 -0.06034101 0.026028996
-0.14103575 0.031494133 -0.11433535 0.21891266 0.13521512 -0.13771302 0.18261838 0.028990729
0.2054896 -0.17517854 0.12805223 -0.25702688 0.060946852 0.2170895 0.07436525 0.13811907
-0.035811085 0.31917286 0.33602676 0.06210202 -0.0611807 -0.12157703 0.0178904 -0.058211908
0.06438771 -0.031797256 0.080998175 -0.37221473 -0.2558955 0.15207505 -0.013041996 -0.30957362
-0.20928034 0.22812146 -0.037386697 0.12388405 0.040646356 -0.16816936 -0.19879414 -0.018183235
0.104481876 0.03521585 -0.036058076 0.12589487 -0.038327932 0.06095259 -0.026740016 -0.080519475
-0.12281228 -0.30829084 0.072350785 0.061693363 -0.24830681 0.023266086 0.14206061 0.10782795
0.047901567 -0.22200379 0.026100812 0.15602691 0.10680225 0.21908562 0.039450888 -0.12620184
0.071867086 -0.26160717 -0.20103374 0.23445812 -0.0908482 0.098730646 0.30529335 -0.29990032
0.09254448 -0.021924308 0.27746385 0.24070087 -0.02162486 -0.08148804 -0.1620023 -0.046980865
-0.21185078 -0.04017713 0.0072560664 0.2596958 -0.16298085 -0.21289836 -0.29426712 -0.24260366
0.038523823 -0.4202539 0.15885141 0.0557577 0.048509292 -0.28520894 -0.12294857 -0.077321514
0.20154919 -0.13796055 -0.2816097 0.16082393 -0.055339612 0.17075615 -0.02430135 -0.18750477
0.26560086 0.28898937 0.16308028 0.0901571 -0.22685088 -0.025248768 0.08000555 0.07440678

module.transform_net.inn.lifts.0.p.net.blocks.0.tconva.thresh.threshold f4 [1, 32, 1, 1]
00000000: bb87 003d 51d3 3bbe 8833 143c f1a1 5b3d
00000010: 0647 0cbd e52a a23c 6afe d5bd 6a63 23bd
00000020: 09b5 17bd 52ff 6cbd a433 36bd 03b1 0fbe
00000030: 8cc4 c9be 84c9 ae3e 385d 143d d050 afbe
00000040: 9bae 3cbe 5bef 95bd 073d 763c 31f2 95be
00000050: a426 7fbe 5e29 9c3d f900 71be 7145 cabe
00000060: ec28 81bc 3ea8 4f3d e7a9 bdbe e8d7 18be
00000070: 4704 37bd 25fe ad3b 7428 00bd b925 3f3e
0.031379443 -0.1834233 0.009045489 0.053621236 -0.03424742 0.019795844 -0.10448916 -0.03988973
-0.037037883 -0.05786068 -0.044482842 -0.14032368 -0.39407766 0.3413812 0.036221713 -0.34241343
-0.18425982 -0.07321044 0.0150291985 -0.2928634 -0.24917084 0.07625078 -0.23535527 -0.39506105
-0.015766583 0.050697558 -0.37043688 -0.14926112 -0.044681814 0.0053098374 -0.03128858 0.18666734

module.transform_net.inn.lifts.0.p.net.blocks.0.convb.depthwise.weight f4 [32, 1, 3, 3]
00000000: 73a8 09bb 7ee9 a5bc 4fee ffbc f098 99be
00000010: b600 a8bd eaf3 413e a267 bfbd e1a3 113e
00000020: f9c7 bc3e c833 a1bd 0c95 6b3d 84b8 7dbe
00000030: a20b 64be 4163 13be 3822 92be 64ce 5a3e
00000040: 2d84 96be 56aa 8fbe 3414 a73c 74d7 04be
00000050: 0b6e 53be b5e8 10be eef7 aa3d 112b 68be
00000060: f893 b4be de05 57be f029 aabd 8446 8dbe
00000070: fbfd e4bc 06b5 5e3e eaf1 42be c8a8 943e
00000080: 6b96 ecbb baad 5f3e e6c2 1f3e cd41 d7bd
00000090: bb77 9f3e dd2a 37be 4d9b a9bd 897c 3f3d
000000a0: 49f2 4abe 6f56 85be b77e 983c ca12 563d
000000b0: 4fbe adbd 8adf 1fbe a542 b03d 2408 0bbe
000000c0: 454d 8c3d 5990 f2be 7174 293c 2b57 8d3e
000000d0: a90b 47be 839b c6be d11e 98be 9de8 193d
000000e0: 47c5 013e 63da 44be e292 3a3e 79f4 94be
000000f0: 08c5 053e 2136 993e 51f4 5a3d 3b45 283c
00000100: 1737 a0be 491c 373e 3034 cb3d 1f26 6c3d
00000110: 74b9 063e 78ce 113e e36f 0d3d 8c36 c33e
00000120: 3a5c 1dbe bce7 c2bc f3cc 013e f6f6 8ebe
00000130: 1f26 bdbe c97e c13d a31e 02be 923a 9b3d
00000140: 347f 643d 0ebf 4f3c b650 903e 3b8a 493e
00000150: d849 713d c2dc 6b3e e794 40be 8190 52be
00000160: 2bd1 8fbe 63fd cd3e 67be 16be fb8c 52bd
00000170: 7429 df3e 7834 1abe 01a5 bcbe 4190 46be
00000180: 1c96 923b d67f 52bc b4f6 8d3e 8c3f bdbc
00000190: cbc2 b43e e53c dcbb 97c0 89be c34d 9b3e
000001a0: 58e1 cfbd 253c e9bd 6e40 e1bd 9f27 23be
000001b0: 1dfa 483e 3432 31be 985a 4fbe f821 3ebe
000001c0: 6ad2 d23c b1a8 963e fdd9 cc3e c777 9cbe
000001d0: ab21 7d3e e3c6 253d 94a9 adbd 660d 9dbd
000001e0: d339 763d b5a5 d5be ccc1 23be 8da8 8abe
000001f0: b42d b23e fb4c c03e 0fdf d23b 23a2 3e3e
00000200: f59b 3e3d 80ee 07be f191 fe3d fd80 59bd
00000210: f689 233e ac1d b13e 8c0a b03e 8508 14bd
00000220: aac5 cbbd dbbe 2bbd 7a31 81be 4b0a 55be
00000230: bce6 32be 2c0f 2dbe 1111 5d3e 65db 4d3c
00000240: 672c 0ebe 5aca 853d c328 b0bd ef52 8dbe
00000250: 7473 70bd b8af 003f 4df4 80be e4c2 613e
00000260: 6913 88be 15c2 163e 66e8 853d d538 1d3e
00000270: fc36 9cbe e2b7 4c3e 69bc f83e 35f7 9d3c
00000280: 72e7 223e dea4 d4bc 22b9 93bd 48c8 84be
00000290: 6642 ec3c 8f4c a73e ba98 35be 9325 16be
000002a0: 2c22 25be 6c54 c63e d389 da3d 409b 2fbd
000002b0: 7863 85be ef31 bd3c 3197 63bc 86c6 02bf
000002c0: ab29 d73e 9f84 e0bd 7708 aabe 8719 fc3d
000002d0: 07fa b73e 1104 843e bf46 873e b981 1ebe
000002e0: c760 a83e 10e0 d23d de67 2b3e fdc2 903e
000002f0: bffc 503e a91e 6bbd ff19 143e f01f b03e
00000300: fe98 5ebe 2db5 90bd 6228 00be f5c0 8abe
00000310: 411f 313e a6ae 82be 7a92 8abd 5375 0e3e
00000320: a791 28bd c0b3 7b3e 9873 52be 350c 7c3a
00000330: 3d24 233d b27c b8bd 1947 adbe bcdd 9a3e
00000340: 1113 0c3f 3e57 f1bc 3116 04be aabe 133e
00000350: 27be 11be fcd6 1b3e 4ee4 6cbc bc3e 92be
00000360: 7d0f 50bd e8be 373e 235c 143e a675 16be
00000370: cca3 f03e 391c 89be 1f6f 47be ce04 e2bd
00000380: ef47 05be c800 3f3e 82e3 79bd d895 fc3d
00000390: 34c1 063c 259b 53be 7fc6 843e 18c0 153e
000003a0: 4a59 3cbe 3ebd 523e 6b28 ce3d 77fe 65be
000003b0: 7c2f 96be 5ddc b4bc 81a4 953d 053d b63e
000003c0: 30ef 683d 828c 91bd be9e 6abc 665d 4d3e
000003d0: 94ae 28be d76a 9abe 5eb9 b8bd 9fc0 bb3e
000003e0: a510 26be 1c4a 7d3e e99a 0e3d a8d8 c8bc
000003f0: 7068 1ebe 1953 b53d 379e 593e af7a 70bd
-0.0021004945 -0.02025294 -0.031241564 -0.29999495 -0.082032606 0.18940702 -0.09345938 0.14222671
0.36871317 -0.078712046 0.05751519 -0.24777418 -0.22270063 -0.14393331 -0.28541732 0.21367794
-0.29397717 -0.28059644 0.020395376 -0.12972814 -0.20647447 -0.1415127 0.0834807 -0.22672679
-0.3526914 -0.20998332 -0.0830878 -0.27592862 -0.027953139 0.21748742 -0.19037595 0.2903502
-0.0072200797 0.21843615 0.15601692 -0.105105974 0.31146035 -0.17887445 -0.082815744 0.046749625
-0.19818987 -0.26042506 0.01861511 0.052264012 -0.08483564 -0.15612617 0.086064614 -0.13577324
0.068506755 -0.47375754 0.010342703 0.27605566 -0.19438042 -0.3879052 -0.2971101 0.037575353
0.12672912 -0.19223933 0.18220094 -0.29092768 0.13063443 0.2992411 0.053455655 0.010270412
-0.3129203 0.17881884 0.09922063 0.057653543 0.13156682 0.14238918 0.03453053 0.38127553
-0.15367213 -0.02379214 0.12675838 -0.2792279 -0.36943147 0.094480105 -0.12707 0.07579531
0.055785373 0.012679828 0.28186578 0.19681637 0.058908314 0.23033431 -0.18806802 -0.20562936
-0.2808927 0.4023238 -0.1472107 -0.05140398 0.43586314 -0.15059078 -0.36844638 -0.19390966
0.004473461 -0.012847861 0.27727282 -0.02310159 0.35304865 -0.0067211264 -0.26904747 0.30332765
-0.10150403 -0.11388425 -0.10998617 -0.15933083 0.1962666 -0.17304307 -0.20249403 -0.18567646
0.025735099 0.29425576 0.40010062 -0.30560133 0.24719875 0.040472876 -0.0847961 -0.07668571
0.06011374 -0.41727987 -0.15991896 -0.2708172 0.34800494 0.3755873 0.006435282 0.18616538
0.04653545 -0.13274574 0.1243018 -0.05310153 0.15970597 0.3459295 0.34383047 -0.036140937
-0.09949811 -0.04193006 -0.2523306 -0.20804708 -0.1747083 -0.16900319 0.21588542 0.012564515
-0.13884126 0.06532736 -0.08601525 -0.27602336 -0.058703855 0.50268126 -0.25186387 0.22047001
-0.2657731 0.14722474 0.06538467 0.15353711 -0.305107 0.1999202 0.48581246 0.019282917
0.15908602 -0.025957521 -0.07213046 -0.25934052 0.028840255 0.32675597 -0.17734042 -0.14662771
-0.16126317 0.38736284 0.10670819 -0.042872667 -0.2605245 0.0230951 -0.013891027 -0.5108417
0.42023978 -0.109627955 -0.33209583 0.123095565 0.35932943 0.25784352 0.26421162 -0.15479173
0.32886335 0.10296643 0.16738841 0.28273764 0.20408915 -0.057402287 0.14463042 0.34399366
-0.2173805 -0.070658065 -0.12515405 -0.2710034 0.17297079 -0.2552387 -0.067662194 0.13911943
-0.04115453 0.24580288 -0.20551908 0.0009614856 0.03982948 -0.09008159 -0.33843306 0.30247295
0.54716593 -0.029460546 -0.1289909 0.14428201 -0.14232694 0.15218729 -0.014458729 -0.28563488
-0.05079602 0.17943919 0.14488272 -0.14693317 0.46999967 -0.26779345 -0.19475983 -0.11036073
-0.13015722 0.18652642 -0.061007984 0.12333268 0.008224774 -0.20664652 0.2593269 0.14624059
-0.18393436 0.20580003 0.10066303 -0.22460352 -0.29333103 -0.022077734 0.07306767 0.3559343
0.056868732 -0.07106878 -0.014320074 0.2005516 -0.16472846 -0.30159637 -0.09019731 0.36670396
-0.16217287 0.24735302 0.034815703 -0.024517372 -0.15469527 0.0885374 0.2125176 -0.05871075

module.transform_net.inn.lifts.0.p.net.blocks.0.convb.pointwise.weight f4 [32, 32, 1, 1]
00000000: d592 bd3a a23d 5dbe d234 423d ab45 78be
00000010: 81a9 adbe ea3c 5abe 1534 09bd 13a3 ab3d
00000020: 70fc 8bbd 4e9d b6bd ebb8 63bd ef22 a8bd
00000030: c994 19be 4569 343d f9ee 08be ee1f 0cbe
00000040: f8b1 12bd b766 333a d93d b1be 0574 0cbe
00000050: b323 243e f6f1 41bc 3ffb 013d ca4e 2ebd
00000060: cb86 9cbd 7ea0 ac3d 3cad 823d aa39 4fbe
00000070: c07e dcbd 4958 0b3e e2ca 7d3e 3de1 6c3d
00000080: d96b 073d 3343 823e 901c 98bd f22c 20be
00000090: 30cb a8be 0d31 c03d a96d 6a3c c638 e7bd
000000a0: 0efa 103e 2194 e7bd 4972 643e d18b 38bc
000000b0: fac0 903e 0daf 86bd ec40 033e 593f a33e
000000c0: c649 713d d742 663d 90f8 3fbe 42ae be3e
000000d0: b149 cf3d 2ff7 d53d 5296 273e aa75 1bbf
000000e0: eb44 463d 6e8b 3fbc 8ece d23d 8672 dbbe
000000f0: 9112 2abd ffba fdbd 05ca 0d3c a373 abbd
00000100: 1d4a 40be 9807 883d 1038 a5be a97c d03d
00000110: b381 36be bae9 15bd a155 663d 7932 87bc
00000120: e05d fdbd 3705 2bbd 450b 6bbd d1bf 31be
00000130: a65f 54be 20d3 a73d 6b53 fcbc d79c 7abe
00000140: f1e3 85be efee 70be 0041 51be d3b3 a1bd
00000150: 09a6 4b3e 1074 4dbe c976 923e bec8 253e
00000160: 4c63 2fbe db0e 80be 9caa 02be 4f42 32bc
00000170: baae 97bd 0038 12be 1538 fa3d 2a40 65be
00000180: e37c fd3d e10f c5bc f3c0 2abd bf14 dabe
00000190: 24f6 2abe 3184 acbd 38dd 98bd d6f1 56be
000001a0: 6a56 4dbe 8ed4 093e 8679 65be ed28 af3d
000001b0: 68c9 343d a071 8b3d d044 053e d780 6bbe
000001c0: c6f5 e13d a518 98bd 31e5 8bbe f7f7 6d3d
000001d0: 2d06 1bbe a58e af3b 0070 833e f264 5b3e
000001e0: 25cb 3d3d a70d b9bd 87b0 29be 5445 1f3d
000001f0: 751b 533e 3027 4ebd a1d2 65be b7ad 31bc
00000200: dd5b 6dbd 9197 053e 51f2 d0bc ea46 7a3d
00000210: aa3b 39be c258 ffbd b45a 813d 386a 913e
00000220: 7148 d8bb 7a42 2e3b 74c4 db3d 397b 633c
00000230: 9cd6 b9bd 2aca 86bd de8c 4ebe 17b7 9bbd
00000240: 5738 743d b8f7 8ebc 52de d43e 3789 50be
00000250: 37b4 993e 4363 9fbd f57d 923d b203 ac3c
00000260: 6989 34be 1b1a 3fbe bb9f b4bd 68e7 fb3c
00000270: 625d 2f3e a110 e8bd 1564 b2bd 099b c2bd
00000280: ee04 533d dd4b 8e3d 1f16 713e d484 bd3d
00000290: 1325 c3bd 3208 27be 0dd5 783e a660 a13e
000002a0: 3b1a b73d 34e7 9f3c 38b8 79be b460 3d3d
000002b0: 67b1 15be 6681 39be 06ec a7bd 517c 95bd
000002c0: 2aec 87be a1b0 39bd f9eb 973d 98c5 cebc
000002d0: 2a33 333d c5d3 d9bc f0fc 0bbe 4fa2 5abe
000002e0: 6582 9e3e 9909 73be 3c29 79bb 5058 373e
000002f0: 7f79 18be b630 02be 6968 efba 9d4e b8be
00000300: 95c6 4e3d 8ab2 97bc 4371 fdbd 48f5 233e
00000310: 6e51 18be 2031 5dbe c945 c7bd 8824 c6bb
00000320: 1c97 91be f260 733d b213 54be 50f1 983d
00000330: f8a7 14be 602c d33d f9b5 2f3e e79f 53be
00000340: 358a 563d 7c01 043e ba4f 003e d15d 8dba
00000350: ecb7 503d 0ac6 64be 4330 f8bc a570 993c
00000360: 41ba 023e 0222 743c 2f91 9dbd 7150 083e
00000370: ccde 5cbd 3b31 153f 0825 ec3c f6a0 10be
00000380: f3ea 633d fcca c4bd 2133 103e 4175 c3be
00000390: 2a51 5abd f035 29bd e3e5 e43d 1206 1c3e
000003a0: 8d88 e33e cfba 193d 4886 c6bd 65c4 73bd
000003b0: 4bf2 063e d8ed 193d ecd2 263d deb2 52be
000003c0: 5a2f 033e e3a4 9cbe 9a6a 28be 3781 703e
000003d0: 1ec0 2abd 6d91 e03d 2251 333c 71ea 13be
000003e0: 70c5 9a3e 08b5 d7bd 725a fd3d 9336 eebc
000003f0: df04 c53d 47fd 963c 89de a73e b277 403d
0.0014463315 -0.21605542 0.047413655 -0.24245326 -0.33918384 -0.213123 -0.033496935 0.08380713
-0.06835258 -0.08916722 -0.055596273 -0.08209788 -0.14998163 0.044045705 -0.13372411 -0.13684055
-0.035814255 0.0006843614 -0.346175 -0.13716133 0.16029243 -0.011837473 0.031733748 -0.042555608
-0.07642897 0.08429049 0.06380698 -0.20236841 -0.10766363 0.13607897 0.24784425 0.05783199
0.033061836 0.25441894 -0.07427323 -0.15642145 -0.3296752 0.09384356 0.014308372 -0.112901255
0.14157888 -0.1130755 0.22309221 -0.011263804 0.2827223 -0.06576357 0.12817734 0.31884268
0.058908246 0.056216087 -0.18747163 0.37242323 0.101214774 0.10447537 0.16365936 -0.60726416
0.04840557 -0.0116909575 0.102933034 -0.42860812 -0.041521613 -0.12389182 0.008654122 -0.08371665
-0.18778272 0.066420734 -0.32269335 0.10180027 -0.17822914 -0.036599852 0.056234006 -0.01650356
-0.12371421 -0.04175302 -0.057383794 -0.17358328 -0.20739612 0.08194566 -0.030801496 -0.24473892
-0.26150468 -0.23528646 -0.20434952 -0.07895627 0.19887556 -0.20063806 0.2860625 0.16189858
-0.17127723 -0.25011334 -0.12760395 -0.010880067 -0.07406373 -0.14279175 0.12217728 -0.22387758
0.12377336 -0.024055423 -0.041687917 -0.42593953 -0.16695458 -0.08423651 -0.07464069 -0.2099069
-0.20052496 0.1345999 -0.22409639 0.08552728 0.04413739 0.068087816 0.13014531 -0.22998367
0.11033206 -0.074265756 -0.27323297 0.058097806 -0.15139075 0.0053575807 0.25671387 0.21425226
0.04633631 -0.09035807 -0.16571246 0.038884476 0.20615943 -0.05033034 -0.2244363 -0.0108446395
-0.057948936 0.13046099 -0.02550617 0.061102785 -0.18089166 -0.12468101 0.063161284 0.2840135
-0.0066004326 0.0026589916 0.1073083 0.013884359 -0.090741366 -0.065815285 -0.20170924 -0.07603281
0.059624042 -0.017452106 0.41575867 -0.20364843 0.30020306 -0.077826045 0.07152931 0.020997856
-0.17630543 -0.18662302 -0.08819529 0.030749992 0.17125466 -0.11331297 -0.087104954 -0.09502227
0.051518373 0.069480635 0.23543595 0.092538506 -0.09528556 -0.1631172 0.24300022 0.3151905
0.0894055 0.019519426 -0.2438668 0.0462348 -0.14618455 -0.18115768 -0.08199315 -0.07299102
-0.26547366 -0.045334462 0.07418055 -0.025240704 0.043749966 -0.026590237 -0.13670707 -0.21350978
0.30958858 -0.2373413 -0.0038018962 0.17904782 -0.14890097 -0.12713894 -0.001826537 -0.35997477
0.05048235 -0.018517751 -0.123751186 0.16011536 -0.14874813 -0.21600771 -0.09730107 -0.0060468353
-0.284356 0.059418626 -0.20710638 0.07467902 -0.145172 0.10311198 0.17159261 -0.20666467
0.0523779 0.12891191 0.12530413 -0.0010785406 0.05095665 -0.22341171 -0.03029645 0.01873047
0.12766363 0.014900686 -0.07693707 0.13311936 -0.053923413 0.58278245 0.028826252 -0.14123902
0.055643987 -0.09609029 0.14082004 -0.38175395 -0.05330006 -0.041311204 0.1117666 0.1523669
0.44440117 0.03753167 -0.09693581 -0.05951347 0.13178365 0.03758034 0.040728495 -0.20576045
0.12811032 -0.3059455 -0.16446915 0.23486792 -0.041687123 0.10965238 0.010944637 -0.14444901
0.30228758 -0.10532576 0.12370767 -0.029078757 0.0962007 0.018431319 0.32786968 0.04698915

module.transform_net.inn.lifts.0.p.net.blocks.0.threshb.threshold f4 [1, 32, 1, 1]
00000000: 43ef 88bb a824 5dbd 3753 f23c 76a7 62bd
00000010: 5362 bb3d 5cf2 8b3d 8046 3a3c 5d59 d43c
00000020: d195 0dbe d815 8c3d 6a90 a1bc ab02 393c
00000030: eddb 84bc a7cb 8e3b 2e58 1fbe 4ac3 3dbe
00000040: f705 22be 6c8e 1dbe cd2b 26bd c19c 463c
00000050: 5fdc 0b3e 32a6 48bd fd42 ecbd 892f 993d
00000060: 5d47 333e 867e 05be 36c6 1cbe 27cf 013e
00000070: 94dc 95bc b10d 3abe 2ef4 74bc a5e5 73be
-0.004178913 -0.053990036 0.029580696 -0.055335484 0.09149613 0.06833336 0.011369348 0.025921518
-0.13826682 0.06840104 -0.019722182 0.01129214 -0.01621815 0.0043577733 -0.15560982 -0.18531528
-0.15822588 -0.15386361 -0.040569115 0.012122334 0.13658284 -0.04898662 -0.115362145 0.0747977
0.17507692 -0.13036546 -0.15309986 0.12676679 -0.018293656 -0.18169285 -0.014950795 -0.23818071

module.transform_net.inn.lifts.0.p.net.blocks.1.tconva.conv.depthwise.weight f4 [32, 1, 3, 3]
00000000: d938 24bd 1da7 adbd c422 733d 765f 1bbe
00000010: dbca fd3e 40a3 ac3e c774 bf3c c3be b2bd
00000020: ff45 413d aa4a 903d e8bc 4dbe b4cf 72bd
00000030: e4cb 7f3e 097f b03e 9abc b13e 5171 cb3d
00000040: 56f1 39be 5cd2 003f 3035 f53d 7c17 8cbb
00000050: d224 4a3d 246d 753c b9cd d73e ddf5 ee3e
00000060: 333c a7be efe3 223e 997f 9a3e 81e1 adbe
00000070: c3d0 b13e 7aa7 45be 6b51 c63c d049 b43d
00000080: b56d 9f3e e0be 5a3e bfbd 80bd e830 f13d
00000090: 68b0 5cbe bc4c 95be 8759 053e 4a09 0b39
000000a0: a648 0c3d c601 94be f3e5 4b3d 85d4 8c3e
000000b0: 6bc9 b13e a39f 843d d8f8 7abe 47f9 6b3e
000000c0: cedf eb3d 1ffa e83c c5f0 5bbe 2ea6 c43e
000000d0: a593 ee3e 18ef 2bbe 1844 a0be 1731 9d3d
000000e0: b618 653e a0a2 5bbe d165 9fbe dabb b3be
000000f0: 3c3c 423e 9c59 f63e c43d 3d3e 7086 64bd
00000100: 5882 f9bd 22da 81be a8fa 8abc aefe 503d
00000110: e939 8abe b44a d8bd bd6b 8a3b 5ad1 d0bd
00000120: a817 3f3e 252c c0bc 4d33 a03b 7b33 803e
00000130: 9da6 c7be 22c7 373e 2833 1cbe 4e03 7bbe
00000140: ef1a 89be a1c4 75be f012 b1be 3898 bd3d
00000150: a121 94be c37a 6abd f4db c93d 3d77 63be
00000160: 7a4e 303d 7829 c2be d7c3 7abd 1b24 2a3d
00000170: f880 243e c3b1 863e a644 dc3d 18d1 36bc
00000180: 2b82 84be c380 9ebe 7205 aebd f6df 69be
00000190: 822f 44be bbdd 9ebc 0e6e bbbd bc9e fcbd
000001a0: 539d 40be 749e f53e fe39 fc3e 50c5 0dbe
000001b0: 570a 103e 3f93 8c3e d260 c9bd f572 2cbe
000001c0: 73ed aebe 76c0 d2bd 46bc 59be 4223 95be
000001d0: 061f c13e cae6 c0be c09b 873e 12ab a2bd
000001e0: 9bcc 66be c5c7 173e da44 6d3e 79b5 fcbd
000001f0: a44d b0bd a3aa 6fbe e6d8 63be fe6c 6cbe
00000200: e7eb 773d 9755 93be 0355 1b3d 5a54 8ebe
00000210: d478 1b3e e6cb 8a3e a84d 823e 8af0 b1bb
00000220: d258 933e a1c5 173e f8c6 5a3e 6431 f3bd
00000230: efed 013e 97ea f73e e6d4 aabd 360b 80be
00000240: fda3 603e 9045 18bd 0de1 64be 43b0 383e
00000250: 47a0 19bd 90b4 e9be 0448 303e 4ba5 4e3e
00000260: 1bbd 64be 8fb1 493e bfe9 babd 17db e73c
00000270: ffa0 51be 988b e23d 73b1 c4bd fa09 c63d
00000280: a99b d23d 0701 a73e a18f 8fbe 806f b83e
00000290: 3b17 2e3e 2e1a 8ebe ed53 1bbd a813 153b
000002a0: d9ba 763e 5656 00be 7628 56be f090 983d
000002b0: 6cc0 b3be 6092 1e3d 46cb a23e 055d 51bd
000002c0: c41f 7fbd db9b 8bbd 6b98 a1be db7c 003e
000002d0: 603f 293e 6081 0e3d 336c a33e 7869 2d3e
000002e0: 4f7c 8bbe 81d7 ad3e 847a b53d 31d9 08be
000002f0: bd52 01bd 3b46 e53e 96e1 87ba 9dd9 6dbe
00000300: 4e73 9c3d 63d9 1a3e 96a2 63bd ba67 a93e
00000310: f2a9 8d3e 86fc 253e 6bb6 8c3e 8b5e c63d
00000320: d106 d33e a653 09bc 5f21 bc3e a667 7d3d
00000330: dc5a 40be db48 493e 03a4 f33d 34d7 b7bd
00000340: 9314 75be 22f5 92be 16c3 bb3b ffac f43d
00000350: 5a11 e8be 8e3b 913e c550 4e3e 0dee 53bb
00000360: 7685 eebd c982 223e 6c47 b9bd f115 213d
00000370: 90c7 4bbd 6a15 2cbe d613 2dbc b2fd 16be
00000380: 0500 8cbe 29df 96be 174e 86bd c853 1a3d
00000390: 4030 71be cc3d 81be a8ea 633e 28b0 2abd
000003a0: 05d8 443e 6b16 123e 54ac ecbd 94b2 1e3d
000003b0: c5c9 71be 592d a7bd 054b fb3d 4973 4abd
000003c0: 129c 95be 6cf5 af3e f7a0 4fbe f48c efbd
000003d0: d6cb a7be dc21 4bbd f4eb dd3d 6f2f 25bd
000003e0: 9031 dfbe 354a b73d 44e4 f93d dd41 763d
000003f0: 86ba 79bd b904 bcbd 09ff 84be 4cba 123e
-0.040093277 -0.0847914 0.059359327 -0.15173134 0.4956883 0.337183 0.023371113 -0.08727791
0.047185894 0.07045491 -0.20091593 -0.059280112 0.24980122 0.3447192 0.34714204 0.09933723
-0.18158469 0.5032098 0.11973035 -0.0042752605 0.04935152 0.014979634 0.4214914 0.46671954
-0.32663116 0.15907262 0.30175474 -0.33961108 0.34729585 -0.19302168 0.024208745 0.08803141
0.31138387 0.21361876 -0.06286191 0.11776906 -0.21551669 -0.29160106 0.13022433 0.00013259533
0.03424897 -0.28907603 0.049779844 0.2750589 0.34723982 0.06475761 -0.24508989 0.2304431
0.11517297 0.02843958 -0.21478565 0.38408035 0.4659702 -0.16790426 -0.3130195 0.07675379
0.22372708 -0.21448755 -0.31132367 -0.35104257 0.1896829 0.48115242 0.18480593 -0.055792272
-0.12183064 -0.25361735 -0.016965225 0.05102413 -0.26997307 -0.105611235 0.004224269 -0.10196181
0.18661368 -0.02345855 0.004888928 0.25039276 -0.38994303 0.17947057 -0.1525389 -0.2451298
-0.2677836 -0.24000789 -0.3458476 0.09257549 -0.28931907 -0.05724598 0.09856406 -0.22213455
0.04304359 -0.37922263 -0.061221924 0.04153834 0.16064823 0.26307496 0.10755281 -0.01115825
-0.2588056 -0.30957612 -0.08497132 -0.2283934 -0.19158748 -0.019392839 -0.09151851 -0.12334964
-0.18810014 0.47972453 0.49262995 -0.138448 0.14066444 0.2745609 -0.0983292 -0.16840728
-0.34165534 -0.10290615 -0.21263227 -0.29128462 0.37718982 -0.37676078 0.26486015 -0.07942785
-0.22538988 0.148223 0.23170796 -0.12339301 -0.08608559 -0.23404936 -0.22250709 -0.23088452
0.06052771 -0.28776237 0.03792287 -0.2779873 0.15182811 0.27108687 0.25449872 -0.005430286
0.28778702 0.14821483 0.21364963 -0.11874655 0.1268842 0.48421165 -0.083413884 -0.25008553
0.21937557 -0.037175715 -0.22351475 0.18035989 -0.037506368 -0.4564557 0.17214972 0.20180242
-0.22337763 0.1969664 -0.09126615 0.028302712 -0.20471571 0.11061782 -0.09604158 0.09669872
0.10283596 0.3261797 -0.28039268 0.36022568 0.17001049 -0.2775435 -0.037921835 0.0022747312
0.24094714 -0.12532935 -0.20913872 0.0744952 -0.35107744 0.038713813 0.3179571 -0.0511141
-0.062286153 -0.068168364 -0.31561598 0.12547629 0.16528082 0.03479135 0.31918487 0.16934764
-0.27243277 0.3395348 0.088612586 -0.13364102 -0.031573046 0.44780144 -0.0010366912 -0.23227544
0.0763918 0.15121989 -0.055574976 0.3308695 0.2766872 0.16209611 0.27482924 0.096860014
0.41216138 -0.00838176 0.3674421 0.061866425 -0.1878466 0.19656698 0.11896517 -0.089765936
-0.2393363 -0.28702646 0.005730043 0.11947059 -0.45325738 0.2836575 0.20147999 -0.0032337934
-0.116465494 0.15870203 -0.09046826 0.039327566 -0.049750865 -0.16805044 -0.010563811 -0.14745215
-0.27343765 -0.29467133 -0.06557863 0.037677556 -0.23553562 -0.2524246 0.22257483 -0.041671902
0.1922303 0.14266364 -0.115563065 0.038744524 -0.23612125 -0.08162946 0.12270168 -0.04942635
-0.29220635 0.3436693 -0.20276247 -0.116968066 -0.32772702 -0.049592838 0.1083602 -0.04032844
-0.435925 0.08949701 0.12201741 0.060121406 -0.0609689 -0.09180588 -0.25975826 0.14328879

module.transform_net.inn.lifts.0.p.net.blocks.1.tconva.conv.pointwise.weight f4 [32, 32, 1, 1]
00000000: 3376 3c3d dc29 bd3d b781 0bbe 6505 a8bc
00000010: 3525 503d 1c75 8bbe 86c4 07be 88fb 513d
00000020: 4e8f 183e 286d d83c c3dd 213e a84e 03bc
00000030: 7fd6 12be b070 d8bd 2ed7 44be 49cf c9be
00000040: f570 34be df7f 30be 6421 1e3d 7c4a 7cbb
00000050: 7b64 153e 03c8 be3d 043d bbbe b5d6 31be
00000060: 93f2 523e 84c8 203e f078 81be 66bf a7be
00000070: 6407 34bd c823 a93d c23b a03e 9343 073d
00000080: ed1a 8cbc 0d97 743e d7ac 97bc 5827 0a3b
00000090: d766 053f 49ea babd d408 573e 573d d93b
000000a0: 164e dcbd c75e b23e 40fd 1c3d 3788 40be
000000b0: 27fe a7be af54 1c3e dfa8 cabd 7dff 6f3e
000000c0: 8fb6 9abe fe2c 1e3e 2465 d83c b980 48bd
000000d0: 05e3 75bd be11 8dbe 5032 17bd 30df 61bd
000000e0: cf5c 9bbc 6f4e 83bd c971 c03c 706b 29be
000000f0: c276 08bd 5aac 8c3d 806f 643e a343 41bd
00000100: a2b6 f93d c4be e93d 9fe1 b63d 428d fc3d
00000110: 85cf 073e 115c a9be 2024 5e3e f466 c7bd
00000120: 9f4c 4c3e 5944 4f3e 8434 7abd 6d65 7b3d
00000130: f86e f1bd 9cd9 063e 0fc7 9c3e 20e5 87be
00000140: f2a4 1cbe 0806 35bc 0b04 30bd 21bd 513c
00000150: 7dca 0f3e 7a26 53bd 2e35 80bc c66a 8c3d
00000160: 9c19 cc3d 5893 9f3c 0e0e d7bd bc04 1cbe
00000170: 3455 b3be d175 033f cb5d b63d 1a54 5a3e
00000180: 5f0f fbbe 4b3b d0bb fb9b 25be d761 2d3e
00000190: 6927 813e 76fc 583d 1edd d73e ff58 ecbd
000001a0: cc7b 983e 531e 7abe 4219 f2bc d90d c4bc
000001b0: 05b5 dc3c 8a93 a2be 9f96 3c3e eab2 0e3d
000001c0: bfac 3d3e 59d6 adbd c1d4 30be 0db3 5abb
000001d0: 7041 1e3d 6b07 e73c e995 f9be 152e 4dbe
000001e0: fab3 4cbb af78 6cbc b088 fbbd 129b f13d
000001f0: d6e8 663e f297 61bd 90b4 3b3e 51fa 633e
00000200: 3341 c93d f359 20bd 3363 373e 1764 7c3c
00000210: 3cd7 8d3e ad00 a2be f3a8 703e 8f5d 28be
00000220: 9739 c53c 8afd d6bd 68c6 1e3e d96b aebd
00000230: 34e0 913d e00e 5bbe 21b8 ddbd 097a 543d
00000240: c158 10be 5304 92bd 384b 9cbc 28ff d13e
00000250: c35a 87be 363c 093e b974 2f3e 720b 6a3e
00000260: 0676 503e 318b 1fbe e19e c5be 1eae 7ebc
00000270: efac 693e 9d28 2e3e e229 aa3c 63b7 7abe
00000280: c120 e6bb 9f26 d33e bb0a 96bd 218c d73d
00000290: a8b7 81bd 7ab6 823e 844d 1d3e 905f 33bd
000002a0: f57b bdbd d0d3 35bd 1064 c63e 79f6 c53d
000002b0: fdc4 17be 7a50 093d 274f 583e 4212 373d
000002c0: af59 0fbd ac6e 753d fa74 683e 3946 17bd
000002d0: a23f 11bd 4003 26bf 8bda b1bd d4a9 2fbd
000002e0: 7031 783d 924c ad3d 9045 663d 43f0 27be
000002f0: 3628 07be c3e6 013e c2d8 c13d 30ff 2cba
00000300: 59f1 7cbd 1593 59bc c3a7 d43d 4a53 033e
00000310: 726e ba3e 0511 eabd 0990 28bd ca9d 933e
00000320: 4928 003b 8c7c 0e3e 7fbf 5c3e d025 1b3e
00000330: bd23 4a3e c59e 23be ccfc 3f3d 9286 34be
00000340: 190f 843e 0ec6 7dbe 19d6 5e3c 0910 27be
00000350: 5762 acbc a4f5 eb3d e143 e3bb a976 ec3e
00000360: ec66 debd e42c 15be b699 8fbe 574c 9d3d
00000370: beea 34be 9fc5 b73e c198 6bbe 77ea 00be
00000380: ce05 22be 83ef 8dbd 0e7c 48bc bbe0 c7be
00000390: 2bd0 8abe ef0e f23d d412 9cbc e0de ad3d
000003a0: 3b63 adbd 92cf f33d 03e2 52be 749f 5ebd
000003b0: 4df3 8ebd 5f74 d23d 4954 3dbd 5586 33be
000003c0: 2512 b7be dff9 4b3c bd50 5fbe 61b2 7d3e
000003d0: a952 53bd 605d a0bc a4c7 8fbd f384 8a3e
000003e0: 6637 b9bd 8f19 f03c 701d c7be 84f4 b03e
000003f0: 7adf 4dbd 57e0 7f3e 65f1 38be 5bcd 593e
0.04601116 0.092365 -0.13623701 -0.020510385 0.050816733 -0.27237785 -0.13258561 0.05126527
0.14898416 0.026419237 0.15807252 -0.008014359 -0.14339636 -0.105683684 -0.1922271 -0.3941596
-0.17621215 -0.17236279 0.038606063 -0.0038496545 0.14589112 0.09315493 -0.3656999 -0.1736706
0.20600347 0.1570149 -0.2528758 -0.32763213 -0.04395236 0.08258778 0.31295592 0.03302343
-0.017102683 0.23885746 -0.018515034 0.002108058 0.52110046 -0.091267176 0.20999461 0.0066296267
-0.10757081 0.34837934 0.038327456 -0.18801962 -0.3281109 0.15266679 -0.09895491 0.23437305
-0.30217406 0.1544685 0.026415415 -0.048950884 -0.060030956 -0.275526 -0.036913216 -0.05514449
-0.018965153 -0.064114444 0.023491757 -0.1654489 -0.03331638 0.06868811 0.22308159 -0.047183644
0.121930376 0.11413339 0.089297526 0.1233163 0.13262756 -0.33078054 0.21693468 -0.097364336
0.19951104 0.20240916 -0.06108524 0.061376024 -0.11788744 0.13168949 0.3062062 -0.26541996
-0.15297297 -0.011048801 -0.042972606 0.0128014395 0.14042087 -0.051550366 -0.015650358 0.06856303
0.09965822 0.019479439 -0.105007276 -0.15236181 -0.35025942 0.5135165 0.08904608 0.21321145
-0.49035165 -0.0063547245 -0.16172783 0.16931854 0.2522538 0.05297514 0.42160887 -0.11540412
0.2978195 -0.2442563 -0.02955306 -0.023932384 0.026941786 -0.31753188 0.18416832 0.034838594
0.18522929 -0.08488149 -0.17268659 -0.0033370883 0.038636625 0.02820178 -0.48747185 -0.2003711
-0.0031235204 -0.01443307 -0.122819304 0.117971554 0.22549757 -0.055076547 0.18330598 0.22263457
0.09826889 -0.039148282 0.17908935 0.015404723 0.27703273 -0.3164114 0.23501949 -0.1644194
0.024075313 -0.104975775 0.15505373 -0.08516664 0.071228415 -0.21392393 -0.108261354 0.051874194
-0.14096357 -0.07129731 -0.019078836 0.4101498 -0.26436433 0.13401875 0.1713437 0.22855929
0.20357522 -0.15580441 -0.38597777 -0.015544442 0.22819875 0.1700768 0.020771924 -0.24484019
-0.0070229475 0.41240403 -0.073262654 0.10524774 -0.06333858 0.25529844 0.15361601 -0.043792307
-0.092521586 -0.044391453 0.38748217 0.096661516 -0.14821239 0.033524014 0.21123944 0.044695146
-0.03499764 0.059919998 0.22700873 -0.036932204 -0.035461076 -0.6484871 -0.08684262 -0.04288657
0.060594022 0.0846187 0.056218684 -0.16400246 -0.13198933 0.12685685 0.094651714 -0.0006599305
-0.061753605 -0.013279696 0.103835605 0.12824741 0.36412388 -0.114290275 -0.041152988 0.2883132
0.0019555262 0.13914698 0.21557425 0.15151143 0.19740196 -0.15978535 0.046871945 -0.1762946
0.2579277 -0.24782583 0.01360085 -0.1631471 -0.021042986 0.115214616 -0.006935582 0.4618428
-0.108594745 -0.14567906 -0.2804696 0.07680576 -0.17667672 0.3589296 -0.2300749 -0.12589441
-0.15822527 -0.06930449 -0.012236608 -0.39038643 -0.27111945 0.118192546 -0.019051947 0.08489776
-0.08466192 0.11904825 -0.20594029 -0.054351285 -0.0698 0.10276102 -0.04622296 -0.17531712
-0.3575603 0.012449711 -0.21808143 0.24775077 -0.051592503 -0.019575775 -0.070205 0.27054557
-0.090437695 0.029309062 -0.38889647 0.3456155 -0.050261952 0.24987923 -0.18060835 0.21269743

module.transform_net.inn.lifts.0.p.net.blocks.1.tconva.thresh.threshold f4 [1, 32, 1, 1]
00000000: f9a2 26be 5f6e 7abe 2f5a 98bd 6d3c 483e
00000010: b1bb 87bd 97cd 72bd cde5 d33d 440a 0bbf
00000020: 8554 9dbe 8e84 163d 6ad8 f2bd 5bdd 49bd
00000030: 5a58 1f3d 73a6 043e 488d 3b3d 3b68 623b
00000040: b28f 87bc d044 febd f7e9 33bd 8637 23bd
00000050: 6fcf 03be 4734 b93d 2fcd 243e 385c 65bd
00000060: 2c39 14bd ee77 2e3c 1117 c9bd 93e8 2abe
00000070: 3132 053f e3b2 823d a14f 813d 7529 b63d
-0.16273107 -0.24456166 -0.07439076 0.195543 -0.06627596 -0.059278097 0.103465654 -0.5431254
-0.30728546 0.036747508 -0.11857684 -0.049283367 0.038902618 0.1295412 0.045789033 0.003454699
-0.016548011 -0.12415469 -0.0439243 -0.039847873 -0.12872098 0.09043174 0.16093896 -0.05599615
-0.036187336 0.010648711 -0.09818853 -0.16690283 0.5202971 0.06381776 0.06314016 0.08894626
